src/main/ai/model/model_ver7.pth (torch, 79417 bytes, 5 tensors)

model.0.weight f4 [128, 18]
-0.17231956 0.06052059 -0.10451595 -0.1589279 0.028681273 -0.09809096 -0.23207636 0.15945597
-0.1346996 -0.13259055 -0.031843066 -0.03507174 0.09233958 -0.17373553 0.09488011 0.13652237
0.001472812 -0.15345885 -0.21748014 0.041865293 -0.21210809 -0.09634304 -0.019763375 0.060824785
0.10073682 -0.15208566 0.20768532 0.18462941 -0.17661963 -0.14083254 -0.23088038 0.09903337
-0.1858542 -0.11447391 -0.035296865 -0.0124551905 -0.19944641 0.09488475 -0.0394164 0.14499122
-0.18857345 0.20526193 0.18328825 -0.13517244 0.029204058 -0.07101356 0.22521807 0.17753159
-0.004239698 -0.22315285 -0.087222956 0.20498092 0.16714959 -0.10085039 0.04619254 -0.21444578
-0.11939415 -0.0990005 0.109667554 -0.20215502 -0.040348187 0.052212283 -0.16332442 0.00420025
0.10970552 -0.049493134 0.15268515 0.19707616 -0.012796938 0.11807646 -0.13648987 -0.013942093
-0.19452986 0.08198754 0.21173643 0.051626664 -0.22124505 -0.048241284 -0.1304737 -0.22697568
-0.10037507 -0.20870744 0.08360122 -0.030850634 0.16703725 0.20206697 -0.043091208 -0.0077094487
-0.11080531 0.13490362 -0.057269454 -0.08847101 0.066983774 0.076264486 0.1147909 -0.1113781
-0.0013539046 -0.117191985 0.072961405 -0.020672292 0.14050312 -0.23347326 0.17547415 -0.13144548
-0.06835733 0.095741615 -0.1383858 0.15988697 -0.11310526 0.18580477 0.1316648 0.23381595
0.22680406 0.006941774 -0.17452204 0.13430095 0.0020750263 -0.09556214 -0.15922801 -0.013425257
0.0071230847 0.08390333 -0.14327729 0.15590113 -0.18079874 0.0118663665 0.18737158 0.0385921
0.06551748 -0.07739871 0.13664393 0.11395694 0.07147457 0.033047546 0.16587774 -0.092106484
0.06720056 0.16870055 -0.1660278 -0.01278545 0.25572464 -0.004465692 -0.08571492 0.18666638
-0.13272908 0.10504629 -0.1428408 0.13942632 0.07978687 -0.034539815 0.2100852 -0.029072663
0.12169489 0.068149 -0.09530343 0.028692838 -0.04149844 -0.06632456 0.17142065 0.0867276
0.220377 0.080115676 0.1695819 -0.13500342 0.04740359 -0.116398215 -0.063773856 -0.19653946
-0.025618628 0.11205028 0.21886386 0.12729804 -0.079356864 -0.15415692 -0.14596437 0.16441081
-0.13482836 0.023147061 0.05549492 -0.020199418 -0.083542526 0.012493833 -0.01891113 -0.0008428111
-0.012998074 0.14527342 0.09742536 0.13458182 0.08513887 0.063150264 0.09117739 -0.06868416
-0.012897883 0.0040739924 0.12020739 0.137945 -0.056664284 -0.16634561 -0.05164492 -0.20715412
0.07378788 0.07455446 0.21988405 0.2179432 0.12907456 0.10843177 -0.12586507 -0.019096792
-0.20265973 0.041976288 0.22181211 0.023854062 0.07647891 0.04130046 0.110481545 0.19651861
0.1952946 -0.18836252 0.21197407 0.19721092 0.22848122 0.12545793 0.19393285 -0.112896435
-0.035541654 0.09609403 0.07560779 0.027559295 0.066404864 -0.14903465 0.03607987 0.02469097
-0.0817661 0.09694742 -0.11970722 -0.20186408 -0.19814937 -0.087582365 -0.21674868 0.11630739
-0.108272836 -0.1673139 0.1965882 0.17040761 0.14194258 0.04973565 -0.079843834 -0.09801045
-0.08387406 -0.1420802 0.15167831 -0.007730946 -0.08627662 -0.15042812 0.037011877 -0.0077732056
00000000: 8a74 30be 70e4 773d 750c d6bd ffbd 22be
00000010: fdf4 ea3c eae3 c8bd 6da5 6dbe 6d48 233e
00000020: b1ee 09be d1c5 07be e06d 02bd 63a7 0fbd
00000030: 891c bd3d bae7 31be 8150 c23d 85cc 0b3e
00000040: 5f0b c13a 5124 1dbe 1db3 5ebe f17a 2b3d
00000050: dd32 59be 804f c5bd cde6 a1bc 6923 793d
00000060: 1b4f ce3d 58bc 1bbe 76ab 543e 7e0f 3d3e
00000070: c7db 34be 6836 10be e86b 6cbe 02d2 ca3d
00000080: 9050 3ebe 4c71 eabd 7293 10bd db10 4cbc
00000090: ae3b 4cbe f052 c23d 1773 21bd 9478 143e
000000a0: 6619 41be 2f30 523e eaaf 3b3e a56a 0abe
000000b0: 593d ef3c 8f6f 91bd 919f 663e d7ca 353e
000000c0: 2aed 8abb 2e82 64be f3a1 b2bd 85e6 513e
000000d0: 4329 2b3e a68a cebd 6434 3d3d ad97 5bbe
000000e0: ec84 f4bd c6c0 cabd 6299 e03d ba01 4fbe
000000f0: 2444 25bd 8cdc 553d 843e 27be 40a2 893b
00000100: 4aad e03d 50b9 4abd 7f59 1c3e 55ce 493e
00000110: 40aa 51bc 12d2 f13d 00c4 0bbe 606d 64bc
00000120: d632 47be 15e9 a73d 6fd1 583e 7b76 533d
00000130: 108e 62be a798 45bd e69a 05be 506c 68be
00000140: 7291 cdbd 67b7 55be 1e37 ab3d 78ba fcbc
00000150: d00b 2b3e a5ea 4e3e 6880 30bd 8b9f fcbb
00000160: e5ed e2bd 2d24 0a3e 6093 6abd 4a30 b5bd
00000170: ca2e 893d 8e30 9c3d 7e17 eb3d 341a e4bd
00000180: 8075 b1ba 5a02 f0bd ca6c 953d f058 a9bc
00000190: 0de0 0f3e 9d13 6fbe 7faf 333e a599 06be
000001a0: eefe 8bbd 2e14 c43d 02b5 0dbe 69b9 233e
000001b0: bba3 e7bd 9b43 3e3e 23d3 063e 736d 6f3e
000001c0: 533f 683e d277 e33b e8b5 32be 3086 093e
000001d0: 2afd 073b 15b6 c3bd ab0c 23be 9cf5 5bbc
000001e0: c468 e93b 82d5 ab3d 48b7 12be 8ca4 1f3e
000001f0: 4e23 39be 266b 423c 56de 3f3e c012 1e3d
00000200: 072e 863d 3783 9ebd 63ec 0b3e 4262 e93d
00000210: 4261 923d dd5c 073d dbdb 293e 53a2 bcbd
00000220: 72a0 893d d6bf 2c3e 3103 2abe 107a 51bc
00000230: 57ee 823e f154 92bb 4e8b afbd 7925 3f3e
00000240: 22ea 07be 8222 d73d dc44 12be c6c5 0e3e
00000250: 4c67 a33d 9f79 0dbd 9320 573e cb29 eebc
00000260: 2c3b f93d b491 8b3d 722e c3bd 3e0d eb3c
00000270: 45fa 29bd 2cd5 87bd e588 2f3e 3d9e b13d
00000280: 82aa 613e b013 a43d e1a6 2d3e 563e 0abe
00000290: 442a 423d 3062 eebd de9b 82bd a441 49be
000002a0: 28de d1bc 9e7a e53d d91d 603e 6b5a 023e
000002b0: da85 a2bd 50db 1dbe af77 15be 4f5b 283e
000002c0: 7210 0abe e89e bd3c a44e 633d 4079 a5bc
000002d0: 5818 abbd efb2 4c3c 84eb 9abc 18f0 5cba
000002e0: e0f5 54bc 8ec2 143e f286 c73d d1cf 093e
000002f0: 4a5d ae3d ed54 813d 36bb ba3d 48aa 8cbd
00000300: a451 53bc 207f 853b 4b2f f63d 7441 0d3e
00000310: cf18 68bd 8156 2abe a089 53bd 3620 54be
00000320: 1a1e 973d 02b0 983d 4929 613e 812c 5f3e
00000330: 1f2c 043e 7a11 de3d c6e2 00be e070 9cbc
00000340: 0886 4fbe 54ef 2b3d b722 633e 9869 c33c
00000350: faa0 9c3d ac2a 293d 2644 e23d 2d3c 493e
00000360: 4ffb 473e 1be2 40be bb0f 593e a9f1 493e
00000370: fbf6 693e 0b78 003e 5596 463e 3f36 e7bd
00000380: 2094 11bd f2cc c43d 42d8 9a3d 08c4 e13c
00000390: 46ff 873d 8a9c 18be 7cc8 133d b844 ca3c
000003a0: fc74 a7bd 5e8c c63d 0f29 f5bd 75b5 4ebe
000003b0: abe7 4abe 625e b3bd 5ef3 5dbe 9232 ee3d
000003c0: 26be ddbd 5654 2bbe 6b4e 493e 557f 2e3e
000003d0: 6559 113e 9cb7 4b3d 2a85 a3bd b4b9 c8bd
000003e0: 2ac6 abbd 797d 11be 8f51 1b3e e053 fdbb
000003f0: ccb1 b0bd d409 1abe c499 173d 60b6 febb

model.0.bias f4 [128]
-0.28875548 0.54661494 0.1785953 0.06374307 -0.37837732 -0.20751217 0.13237984 0.0113776205
-0.37399817 0.08227749 0.4868197 -0.21526663 -0.17997786 0.18759911 0.14544608 0.2247897
-0.04830274 -0.2353742 0.05775172 -0.08923994 -0.23030834 -0.16483444 0.09992542 0.1654011
-0.34976032 -0.14696907 -0.5650763 0.007961954 -0.09176235 0.4166114 -0.09856565 -0.02749364
0.0934457 0.20486587 0.4644351 0.22507481 0.16307795 -0.17883343 -0.06898807 -0.16004127
0.42226487 0.0283592 0.022206105 0.49500725 0.6221584 -0.26710987 -0.059111774 -0.09751467
-0.08173317 0.13720502 -0.013531769 0.12911183 0.11955239 0.4804916 0.26120135 -0.04397853
0.40871 0.10156921 -0.14323181 -0.1136118 0.13945837 -0.18783663 -0.16722018 0.048998825
0.14872323 0.21729715 0.059728645 0.058498755 -0.26722312 -0.31384566 -0.051106907 -0.14761023
0.19262525 0.3254697 -0.3458064 0.39776054 0.2769085 0.23246495 -0.18340419 0.32692602
0.012784317 0.12451173 0.008185395 0.15129612 0.022449002 0.1626858 -0.07851807 0.32965642
0.3060158 -0.048723638 0.6740105 -0.048118636 0.06357391 0.11339827 -0.047421724 -0.1252772
0.11224929 0.38588652 -0.27635074 -0.22253829 -0.14855197 -0.066978335 -0.5053979 0.1793272
-0.088595435 0.33089298 -0.5551979 -0.2053698 0.4182014 0.46324858 0.05909665 -0.06978138
-0.31699026 -0.1980018 -0.33070433 0.017321214 -0.15928496 0.10339005 0.15265395 0.06804199
0.031306185 0.5809523 -0.016752038 0.07497347 -0.37092656 0.39639378 0.08136077 -0.07709816
00000000: c2d7 93be f5ee 0b3f b0e1 363e ba8b 823d
00000010: acba c1be 127e 54be 958e 073e 3369 3a3c
00000020: b07c bfbe 1a81 a83d 6f40 f93e db6e 5cbe
00000030: 1e4c 38be fb19 403e d1ef 143e 452f 663e
00000040: 18d9 45bd ef05 71be 118d 6c3d 6ec3 b6bd
00000050: f3d5 6bbe 5cca 28be b3a5 cc3d e85e 293e
00000060: c913 b3be 0f7f 16be d7a8 10bf db72 023c
00000070: e6ed bbbd 174e d53e cadc c9bd 583a e1bc
00000080: 7660 bf3d 5cc8 513e 70ca ed3e 037a 663e
00000090: e8fd 263e 1c20 37be 9e49 8dbd dce1 23be
000000a0: 1a33 d83e 8e51 e83c 94e9 b53c 9771 fd3e
000000b0: c645 1f3f a0c2 88be 301f 72bd c5b5 c7bd
000000c0: b863 a7bd 797f 0c3e 5ab4 5dbc e435 043e
000000d0: e2d7 f43d ff02 f63e 2fbc 853e d522 34bd
000000e0: 7042 d13e 8503 d03d 5cab 12be 4ead e8bd
000000f0: 2dce 0e3e 3f58 40be c43b 2bbe feb2 483d
00000100: e74a 183e 2583 5e3e 06a6 743d 649c 6f3d
00000110: 78d1 88be 61b0 a0be 7a55 51bd 2327 17be
00000120: 8e3f 453e f7a3 a63e 890d b1be 45a7 cb3e
00000130: f3c6 8d3e 4b0b 6e3e 4fce 3bbe d962 a73e
00000140: 5075 513c 0200 ff3d 091c 063c 5fed 1a3e
00000150: f8e6 b73c 1b97 263e 15ce a0bd bac8 a83e
00000160: 1aae 9c3e 7092 47bd f48b 2c3f 0c18 45bd
00000170: 0a33 823d 5a3d e83d 483d 42bd ab48 00be
00000180: f5e2 e53d eb92 c53e d87d 8dbe 14e1 63be
00000190: 021e 18be f02b 89bd c261 01bf 8da1 373e
000001a0: 8671 b5bd ce6a a93e 7321 0ebf 764c 52be
000001b0: 7e1e d63e eb2e ed3e 540f 723d 8ae9 8ebd
000001c0: 8c4c a2be fcc0 4abe 1452 a9be 38e5 8d3c
000001d0: 991b 23be 2abe d33d 5151 1c3e 9959 8b3d
000001e0: ea3a 003d 4ab9 143f 923b 89bc b18b 993d
000001f0: 16ea bdbe 20f4 ca3e 7aa0 a63d a4e5 9dbd

model.2.weight f4 [128, 128]
-0.14641939 -0.014286507 0.027690144 0.041818894 0.025031306 -0.07661269 -0.015260852 -0.0099104205
0.013869871 0.07784679 0.07089486 -0.04678159 0.08339242 -0.055119194 -0.054117944 -0.02800443
-0.06920488 0.026517943 -0.04094171 0.05200305 -0.056631148 0.08569192 -0.061582047 0.0054207966
0.017230414 0.05402 -0.12552987 0.07091052 0.041582562 0.088176236 -0.08384043 0.03400349
0.020322567 -0.057520483 -0.052432477 0.03535012 0.13782474 0.023066096 0.074597515 0.024140716
0.10907886 0.029154766 0.047269806 0.15579583 0.05690088 -0.0005002346 -0.038781486 -0.059648283
0.049032398 -0.084871896 -0.04388081 0.08502437 0.048493885 -0.059627917 0.07286075 -0.010737001
-0.0067058494 0.07566891 0.01909013 0.08416433 0.07872162 -0.058797196 -0.002429092 -0.063542776
0.044022925 -0.07066332 -0.0053068064 -0.07580743 -0.009704225 -0.00039354083 0.070346795 0.006838791
0.056403708 -0.057790205 -0.022760201 0.059677757 -0.019943437 0.0058639348 -0.064442284 0.00083739916
-0.041899405 -0.08631899 0.0038209069 -0.0762655 0.0329623 -0.032529894 -0.062473983 0.00012813121
0.0770899 -0.06040004 0.29068607 0.047766127 -0.06743385 0.06934976 -0.030769106 0.0627371
0.018562451 0.09748217 -0.020126175 -0.013997945 0.029165365 -0.07592978 0.026438301 0.083938174
0.059154116 -0.021490846 -0.047977988 0.038499855 0.021932665 0.04027559 0.009633191 0.05776497
0.0052310145 0.05809193 -0.03827288 -0.0018099546 0.06274592 0.08313016 -0.01395534 0.0075383103
-0.017114785 0.14184369 -0.050379913 0.0629762 -0.055644248 0.0142093 0.054191343 0.017624155
-0.052091416 0.08910555 0.08985568 0.03558202 -0.08452851 -0.050659277 0.088778555 0.08479227
-0.008206031 -0.028149415 0.119978614 0.055033572 -0.055953924 0.06378434 -0.058403373 -0.033822246
-0.06888254 0.06078408 0.014026423 -0.07266462 -0.06162796 -0.006999299 -0.05145081 0.04349638
-0.029745417 -0.055670355 -0.1265532 0.05107348 -0.011200294 0.0039425245 0.045379765 0.036085512
0.079030536 -0.018884366 0.006284093 -0.022481732 0.06996302 -0.00055322796 0.07840762 -0.039392836
0.12171776 0.044813443 0.017524753 0.21063009 0.09143606 -0.073806584 -0.07125673 0.04029787
0.0288186 0.03456579 -0.034323797 -0.06967036 -0.060067583 0.0998184 0.07125489 0.022756457
0.10198144 0.06996693 -0.033072587 -0.0575564 0.022921935 -0.055731658 0.035915338 0.036229387
-0.03919405 -0.06008557 0.06957788 -0.066595495 0.0057791406 0.013049998 0.035951998 -0.04813638
-0.0029189575 -0.011574906 -0.12298869 0.044069856 0.0133051 0.06568011 -0.03509389 -0.044735808
0.019418508 0.028595246 0.022931106 -0.038235735 -0.06081257 -0.06759014 0.061348196 -0.030029776
0.099012256 -0.039554678 0.14765252 -0.064863145 0.058634333 -0.034004677 0.006677054 -0.085077174
-0.06833672 -0.028660608 0.006614173 -0.00040480815 0.050942026 0.081927575 -0.053098463 -0.06905775
0.04031498 -0.07473783 -0.0888511 -0.02325119 0.09405243 0.07921584 0.016030893 0.040262915
-0.0069695073 0.037701003 -0.062835716 -0.028210633 0.038223095 -0.053841762 -0.08720032 0.07769921
-0.059544064 0.2840918 -0.01806491 0.004398839 0.068412796 0.034608684 0.065340094 -0.042716768
00000000: f7ee 15be f411 6abc 71d6 e23c 4a4a 2b3d
00000010: 740e cd3c 1de7 9cbd a708 7abc 515f 22bc
00000020: 753e 633c 236e 9f3d 5331 913d 0d9e 3fbd
00000030: a5c9 aa3d aac4 61bd c7aa 5dbd 8c69 e5bc
00000040: 4abb 8dbd 283c d93c 7fb2 27bd 2601 553d
00000050: 10f6 67bd 3f7f af3d 753d 7cbd f0a0 b13b
00000060: cc26 8d3c 1344 5d3d e78a 00be 8939 913d
00000070: 7a52 2a3d be95 b43d 88b4 abbd 3e47 0b3d
00000080: 837b a63c 999a 6bbd 70c3 56bd 4acb 103d
00000090: ee21 0d3e 1cf5 bc3c 95c6 983d c0c2 c53c
000000a0: bd64 df3d fad5 ee3c fc9d 413d f188 1f3e
000000b0: e610 693d 2d22 03ba 56d9 1ebd c251 74bd
000000c0: 32d6 483d 51d1 adbd 5dbc 33bd 4221 ae3d
000000d0: 86a1 463d 673c 74bd 0438 953d 3fea 2fbc
000000e0: bebc dbbb 4df8 9a3d e862 9c3c 595e ac3d
000000f0: cd38 a13d 54d5 70bd 6731 1fbb b722 82bd
00000100: 6251 343d eeb7 90bd b8e4 adbb ed40 9bbd
00000110: 78fe 1ebc 2854 ceb9 fb11 903d f017 e03b
00000120: 9307 673d 6cb5 6cbd 9a73 babc aa70 743d
00000130: 6b60 a3bc 4026 c03b 51fa 83bd e884 5b3a
00000140: b69e 2bbd 03c8 b0bd 2e68 7a3b 1631 9cbd
00000150: 7a03 073d 113e 05bd b8e4 7fbd f65a 0639
00000160: 4fe1 9d3d 0866 77bd ced4 943e 6aa6 433d
00000170: c21a 8abd 3f07 8e3d 7e0f fcbc 4f7c 803d
00000180: 4810 983c bba4 c73d a6df a4bc a357 65bc
00000190: 34ec ee3c 1381 9bbd 2395 d83c c7e7 ab3d
000001a0: 964b 723d 920d b0bc 9184 44bd 06b2 1d3d
000001b0: 22ac b33c 04f8 243d 88d4 1d3c f69a 6c3d
000001c0: ee68 ab3b cef1 6d3d 06c4 1cbd 003c edba
000001d0: ef80 803d 2540 aa3d f0a4 64bc ee03 f73b
000001e0: 4e34 8cbc 793f 113e 2b5b 4ebd aaf9 803d
000001f0: 39eb 63bd 20ce 683c bef7 5d3d 8860 903c
00000200: cf5d 55bd f87c b63d 4106 b83d 74be 113d
00000210: 491d adbd 1a80 4fbd 88d1 b53d 92a7 ad3d
00000220: 9772 06bc 9a99 e6bc 59b7 f53d e26a 613d
00000230: f12f 65bd 5da1 823d 6038 6fbd 3289 0abd
00000240: 4a12 8dbd baf8 783d 15cf 653c 30d1 94bd
00000250: 9a6d 7cbd 605a e5bb 16be 52bd 4329 323d
00000260: a9ac f3bc 9906 64bd 2997 01be 6d32 513d
00000270: 7081 37bc 4b30 813b 22e0 393d 67ce 133d
00000280: c3da a13d 63b3 9abc cbea cd3b 9c2b b8bc
00000290: c648 8f3d 8006 11ba 2d94 a03d 625a 21bd
000002a0: 2947 f93d 4d8e 373d 1290 8f3c 6aaf 573e
000002b0: d442 bb3d e827 97bd 0cef 91bd 610f 253d
000002c0: fc14 ec3c dc94 0d3d 1c97 0cbd 55af 8ebd
000002d0: 6d09 76bd 976d cc3d 15ee 913d c06b ba3c
000002e0: a5db d03d d24a 8f3d 1f77 07bd 42c0 6bbd
000002f0: c8c6 bb3c e146 64bd f61b 133d 4465 143d
00000300: f189 20bd 491c 76bd d97e 8e3d 3863 88bd
00000310: f25e bd3b a9cf 553c 6742 133d a72a 45bd
00000320: fb4b 3fbb ada4 3dbc 7fe1 fbbd 9882 343d
00000330: a2fd 593c 4b83 863d 9cbe 0fbd e53c 37bd
00000340: 9013 9f3c 9440 ea3c 04da bb3c 139d 1cbd
00000350: 9a16 79bd b36c 8abd 3f48 7b3d 0101 f6bc
00000360: f0c6 ca3d 1604 22bd 3932 173e f8d6 84bd
00000370: 8e2a 703d 7d48 0bbd 30cb da3b f13c aebd
00000380: 1ff4 8bbd a7c9 eabc b4bb d83b 6e3c d4b9
00000390: 96a8 503d a5c9 a73d c67d 59bd 266e 8dbd
000003a0: 5221 253d 2610 99bd 91f7 b5bd 4879 bebc
000003b0: 8f9e c03d ea3b a23d 3853 833c baea 243d
000003c0: 7760 e4bb 5e6c 1a3d 03b0 80bd fc19 e7bc
000003d0: d28f 1c3d 2e89 5cbd 1596 b2bd c320 9f3d
000003e0: 7ae4 73bd 7b74 913e ddfc 93bc 2324 903b
000003f0: 021c 8c3d d6c1 0d3d 07d1 853d c7f7 2ebd

model.2.bias f4 [128]
0.16512771 0.13725911 0.081052616 0.093789645 0.0076315105 0.17861593 0.4228696 -0.19408824
0.025953647 0.21175353 -0.09693373 0.03748492 -0.02819315 0.013197318 0.028500982 -0.26452556
-0.03432279 0.06337496 0.031781744 0.031615138 -0.08494948 0.36744538 0.009200555 -0.020779163
-0.02720464 -0.04623465 0.033685066 -0.084012136 0.26664284 0.18294549 -0.0051690317 0.22637446
-0.018936254 0.08345573 0.1662856 0.2888942 0.028373659 0.20200442 -0.07639477 -0.056897275
0.21245356 -0.020288022 -0.012444628 -0.16296344 0.21224971 -0.063873455 -0.08873533 -0.091902785
-0.019457959 0.010962628 -0.17979711 0.04747673 -0.058026295 0.08982732 0.07666252 0.027242027
0.049699184 0.1806108 0.03582967 -0.015897041 -0.055858955 0.19263165 -0.0031870604 0.1977323
0.19921927 0.22683844 -0.069356814 0.14816521 -0.022713654 0.20684718 0.038937934 0.10774811
0.062763795 0.025321832 -0.0809329 0.0681477 -0.048888627 0.15871915 -0.058953863 -0.07501355
0.056038074 -0.06775174 -0.07604856 0.21915805 0.15671203 -0.0152745545 -0.040522672 0.07719492
-0.035487395 0.038947918 0.08615404 0.13575329 -0.07172029 0.28134388 -0.023113176 0.068811394
0.36227292 -0.023289368 -0.057916038 0.004356742 0.059124403 -0.066039674 0.21710443 -0.052037217
0.072488084 -0.07966817 -0.049142998 -0.040269986 0.16791917 0.10782465 -0.08833314 -0.07500926
0.033754587 0.037423335 0.0041243974 0.13658392 0.012915612 0.04455646 0.071955994 0.08151901
-0.08523828 0.014540501 -0.27746585 -0.015013151 0.041079648 0.097220704 0.0583327 0.011117123
00000000: 3d17 293e a78d 0c3e eafe a53d c914 c03d
00000010: c011 fa3b 18e7 363e 5d82 d83e 11bf 46be
00000020: be9c d43c ebd5 583e 3185 c6bd ca89 193d
00000030: 52f5 e6bc 9039 583c e47a e93c e56f 87be
00000040: 0e96 0cbd bbca 813d 932d 023d e07e 013d
00000050: fef9 adbd cd21 bc3e edbd 163c 1039 aabc
00000060: 44dc debc 8b60 3dbd 5af9 093d 8e0e acbd
00000070: 6985 883e 1056 3b3e fb60 a9bb b5ce 673e
00000080: 3420 9bbc d6ea aa3d c646 2a3e f1e9 933e
00000090: e06f e83c 3fda 4e3e dc74 9cbd 1e0d 69bd
000000a0: 6d8d 593e 1133 a6bc 8ee4 4bbc e3df 26be
000000b0: fd57 593e 16d0 82bd deba b5bd 8737 bcbd
000000c0: 4c66 9fbc 989c 333c bc1c 38be f676 423d
000000d0: fbac 6dbd 63f7 b73d 3d01 9d3d ac2a df3c
000000e0: 5f91 4b3d 0af2 383e 22c2 123d 833a 82bc
000000f0: 5ccc 64bd 3b41 453e 00de 50bb 567a 4a3e
00000100: 2300 4c3e 5648 683e f20a 8ebd 9fb8 173e
00000110: fc11 babc bfcf 533e 627d 1f3d 0bab dc3d
00000120: 4e8a 803d bb6f cf3c 26c0 a5bd 0591 8b3d
00000130: 713f 48bd 4687 223e 9b79 71bd b4a0 99bd
00000140: 2e88 653d 6dc1 8abd 59bf 9bbd f86a 603e
00000150: 1e79 203e 2042 7abc 1afb 25bd 5f18 9e3d
00000160: 3b5b 11bd da87 1f3d 8871 b03d e902 0b3e
00000170: 16e2 92bd 4e0c 903e d857 bdbc fdec 8c3d
00000180: d67b b93e 58c9 bebc 5e39 6dbd 00c3 8e3b
00000190: 6e2c 723d cf3f 87bd a050 5e3e fa24 55bd
000001a0: a274 943d 1129 a3bd 2b4a 49bd 24f2 24bd
000001b0: 01f3 2b3e 2cd3 dc3d 01e8 b4bd 749e 99bd
000001c0: 4042 0a3d 3649 193d f425 873b a8dc 0b3e
000001d0: 019c 533c d680 363d aa5d 933d 70f3 a63d
000001e0: 6891 aebd 483b 6e3c 0110 8ebe b8f9 75bc
000001f0: 2243 283d a61b c73d 45ee 6e3d 9824 363c

model.4.weight f4 [1, 128]
0.070680834 0.096510045 0.047771495 0.10231254 0.05301883 0.10602642 0.30217248 -0.047470666
-0.009061608 0.09379214 -0.094242945 0.031405784 -0.059819877 0.059651114 0.071062304 -0.039589483
-0.010396741 -0.06736862 -0.037773512 0.071822666 -0.054173607 0.18591757 -0.019409277 -0.07812233
-0.060971323 0.03701917 -0.00072614104 0.029863402 0.084548935 0.04074798 -0.010670923 0.078423664
-0.005179487 0.051379368 0.03824023 0.010411957 -0.024784327 0.09847131 -0.06328373 -0.06733203
0.04957705 -0.063803345 -0.068023 -0.07531808 0.014759853 0.03287682 -0.042535234 -0.06912865
0.025688328 0.012703292 -0.019379918 0.025966808 0.027427629 0.059268534 -0.0025566071 0.0741343
0.005172991 0.10633723 -0.05583565 -0.069751084 0.07057404 0.10824044 0.07817004 0.062364202
0.036783926 0.03716672 -0.017588325 0.16316354 0.031987622 0.03424792 0.002201274 0.061036747
0.033944048 -0.07709514 -0.07632477 -0.0049947575 -0.057796143 0.060462356 -0.053749304 -0.030814003
0.006588936 -0.0005033273 -0.0037634268 0.025550997 0.03038146 -0.045530934 -0.028298553 -0.07548482
0.06045846 -0.0081578195 0.061955813 0.042923823 0.0805914 0.04031096 -0.07953243 -0.0716736
0.23965985 -0.06945795 -0.04705254 -0.013615951 -0.031008795 -0.050649215 0.03840661 0.024414249
0.061760645 -0.028776543 0.0089970995 0.016563542 0.07080693 0.0064225104 -0.04449085 0.00018106385
-0.0054677613 0.008036315 -0.013892308 0.05889958 -0.03451787 -0.011934787 -0.0769595 0.03891103
-0.07841008 0.0019400581 -0.028537381 -0.07788324 -0.014779814 0.029314201 0.076810755 0.04521767
00000000: 1dc1 903d 0fa7 c53d 0bac 433d 3d89 d13d
00000010: 462a 593d 6124 d93d 5ab6 9a3e 9a70 42bd
00000020: 2477 14bc 1816 c03d 7202 c1bd 5aa3 003d
00000030: b005 75bd ba54 743d 1d89 913d 9528 22bd
00000040: 1857 2abc 8ff8 89bd 66b8 1abd c317 933d
00000050: 25e5 5dbd 2d61 3e3e 3400 9fbc 9afe 9fbd
00000060: 11bd 79bd 6aa1 173d 805a 3eba 18a4 f43c
00000070: fe27 ad3d 5be7 263d 18d5 2ebc 969c a03d
00000080: b0b8 a9bb 2c73 523d caa1 1c3d ea96 2a3c
00000090: 8008 cbbc 54ab c93d e69a 81bd 60e5 89bd
000000a0: 4e11 4b3d 54ab 82bd a54f 8bbd 5e40 9abd
000000b0: 4fd3 713c d8a9 063d 6d39 2ebd 5293 8dbd
000000c0: 5470 d23c 7821 503c a2c2 9ebc 58b8 d43c
000000d0: e8af e03c 90c3 723d c08c 27bb b9d3 973d
000000e0: 3282 a93b 55c7 d93d ecb3 64bd a8d9 8ebd
000000f0: 1f89 903d 2aad dd3d 9d17 a03d 9b71 7f3d
00000100: beaa 163d 213c 183d 6415 90bc 5814 273e
00000110: 7405 033d 8c47 0c3d 4043 103b ab01 7a3d
00000120: ea08 0b3d 0fe4 9dbd 2950 9cbd 10ab a3bb
00000130: a6bb 6cbd 60a7 773d 3b28 5cbd a66d fcbc
00000140: 00e8 d73b b9f1 03ba d3a3 76bb 5350 d13c
00000150: 8ae2 f83c a57e 3abd 5ed2 e7bc c997 9abd
00000160: 4aa3 773d 60a8 05bc 61c5 7d3d e4d0 2f3d
00000170: 1b0d a53d 1b1d 253d e6e1 a2bd 9cc9 92bd
00000180: 6469 753e f83f 8ebd 2aba 40bd 7015 5fbc
00000190: 2806 febc 8d75 4fbd 4050 1d3d 6400 c83c
000001a0: bbf8 7c3d c9bc ebbc 9268 133c 44b0 873c
000001b0: 3903 913d ec73 d23b 0a3c 36bd f5db 3d39
000001c0: e82a b3bb c0aa 033c 909c 63bc b040 713d
000001d0: 9c62 0dbd 208a 43bc f19c 9dbd 2c61 1f3d
000001e0: 7795 a0bd 8c49 fe3a 3ac7 e9bc 4081 9fbd
000001f0: 0827 72bc 5624 f03c f54e 9d3d 2a36 393d
